==========================================================================================
Layer (type:depth-idx)                   Output Shape              Param #
==========================================================================================
Sequential                               [10, 1]                   --
├─Sequential: 1-1                        [10, 1024]                --
│    └─Linear: 2-1                       [10, 512]                 169,472
│    └─ReLU: 2-2                         [10, 512]                 --
│    └─Linear: 2-3                       [10, 1024]                525,312
│    └─ReLU: 2-4                         [10, 1024]                --
├─DenseBlock: 1-2                        [10, 1280]                --
│    └─Sequential: 2-5                   --                        --
│    │    └─Sequential: 3-1              [10, 128]                 131,456
│    │    └─Sequential: 3-2              [10, 128]                 147,840
├─Sequential: 1-3                        [10, 640]                 --
│    └─Linear: 2-6                       [10, 640]                 819,840
│    └─BatchNorm1d: 2-7                  [10, 640]                 1,280
│    └─ReLU: 2-8                         [10, 640]                 --
├─DenseBlock: 1-4                        [10, 896]                 --
│    └─Sequential: 2-9                   --                        --
│    │    └─Sequential: 3-3              [10, 128]                 82,304
│    │    └─Sequential: 3-4              [10, 128]                 98,688
├─BatchNorm1d: 1-5                       [10, 896]                 1,792
├─ReLU: 1-6                              [10, 896]                 --
├─Linear: 1-7                            [10, 1]                   897
==========================================================================================
Total params: 1,978,881
Trainable params: 1,978,881
Non-trainable params: 0
Total mult-adds (M): 19.79
==========================================================================================
Input size (MB): 0.01
Forward/backward pass size (MB): 0.38
Params size (MB): 7.92
Estimated Total Size (MB): 8.31
…
