==========================================================================================
Layer (type:depth-idx)                   Output Shape              Param #
==========================================================================================
Sequential                               [10, 10]                  --
├─Conv2d: 1-1                            [10, 6, 24, 24]           156
├─BatchNorm2d: 1-2                       [10, 6, 24, 24]           12
├─Sigmoid: 1-3                           [10, 6, 24, 24]           --
├─AvgPool2d: 1-4                         [10, 6, 12, 12]           --
├─Conv2d: 1-5                            [10, 16, 8, 8]            2,416
├─BatchNorm2d: 1-6                       [10, 16, 8, 8]            32
├─Sigmoid: 1-7                           [10, 16, 8, 8]            --
├─AvgPool2d: 1-8                         [10, 16, 4, 4]            --
├─Flatten: 1-9                           [10, 256]                 --
├─Linear: 1-10                           [10, 120]                 30,840
├─BatchNorm1d: 1-11                      [10, 120]                 240
├─Sigmoid: 1-12                          [10, 120]                 --
├─Linear: 1-13                           [10, 84]                  10,164
├─BatchNorm1d: 1-14                      [10, 84]                  168
├─Sigmoid: 1-15                          [10, 84]                  --
├─Linear: 1-16                           [10, 10]                  850
==========================================================================================
Total params: 44,878
Trainable params: 44,878
Non-trainable params: 0
Total mult-adds (M): 2.87
==========================================================================================
Input size (MB): 0.03
Forward/backward pass size (MB): 0.75
Params size (MB): 0.18
Estimated Total Size (MB): 0.96
==========================================================================================
…
