==========================================================================================
Layer (type:depth-idx)                   Output Shape              Param #
==========================================================================================
Sequential                               [10, 10]                  --
├─Sequential: 1-1                        [10, 64, 24, 24]          --
│    └─Conv2d: 2-1                       [10, 64, 48, 48]          3,200
│    └─BatchNorm2d: 2-2                  [10, 64, 48, 48]          128
│    └─ReLU: 2-3                         [10, 64, 48, 48]          --
│    └─MaxPool2d: 2-4                    [10, 64, 24, 24]          --
├─Sequential: 1-2                        [10, 64, 24, 24]          --
│    └─Residual: 2-5                     [10, 64, 24, 24]          --
│    │    └─Conv2d: 3-1                  [10, 64, 24, 24]          36,928
│    │    └─BatchNorm2d: 3-2             [10, 64, 24, 24]          128
│    │    └─Conv2d: 3-3                  [10, 64, 24, 24]          36,928
│    │    └─BatchNorm2d: 3-4             [10, 64, 24, 24]          128
│    └─Residual: 2-6                     [10, 64, 24, 24]          --
│    │    └─Conv2d: 3-5                  [10, 64, 24, 24]          36,928
│    │    └─BatchNorm2d: 3-6             [10, 64, 24, 24]          128
│    │    └─Conv2d: 3-7                  [10, 64, 24, 24]          36,928
│    │    └─BatchNorm2d: 3-8             [10, 64, 24, 24]          128
├─Sequential: 1-3                        [10, 128, 12, 12]         --
│    └─Residual: 2-7                     [10, 128, 12, 12]         --
│    │    └─Conv2d: 3-9                  [10, 128, 12, 12]         73,856
│    │    └─BatchNorm2d: 3-10            [10, 128, 12, 12]         256
│    │    └─Conv2d: 3-11                 [10, 128, 12, 12]         147,584
│    │    └─BatchNorm2d: 3-12            [10, 128, 12, 12]         256
│    │    └─Conv2d: 3-13                 [10, 128, 12, 12]         8,320
│    └─Residual: 2-8                     [10, 128, 12, 12]         --
│    │    └─Conv2d: 3-14                 [10, 128, 12, 12]         147,584
│    │    └─BatchNorm2d: 3-15            [10, 128, 12, 12]         256
│    │    └─Conv2d: 3-16                 [10, 128, 12, 12]         147,584
│    │    └─BatchNorm2d: 3-17            [10, 128, 12, 12]         256
├─Sequential: 1-4                        [10, 256, 6, 6]           --
│    └─Residual: 2-9                     [10, 256, 6, 6]           --
│    │    └─Conv2d: 3-18                 [10, 256, 6, 6]           295,168
│    │    └─BatchNorm2d: 3-19            [10, 256, 6, 6]           512
│    │    └─Conv2d: 3-20                 [10, 256, 6, 6]           590,080
│    │    └─BatchNorm2d: 3-21            [10, 256, 6, 6]           512
│    │    └─Conv2d: 3-22                 [10, 256, 6, 6]           33,024
│    └─Residual: 2-10                    [10, 256, 6, 6]           --
│    │    └─Conv2d: 3-23                 [10, 256, 6, 6]           590,080
│    │    └─BatchNorm2d: 3-24            [10, 256, 6, 6]           512
│    │    └─Conv2d: 3-25                 [10, 256, 6, 6]           590,080
│    │    └─BatchNorm2d: 3-26            [10, 256, 6, 6]           512
├─Sequential: 1-5                        [10, 512, 3, 3]           --
│    └─Residual: 2-11                    [10, 512, 3, 3]           --
│    │    └─Conv2d: 3-27                 [10, 512, 3, 3]           1,180,160
│    │    └─BatchNorm2d: 3-28            [10, 512, 3, 3]           1,024
│    │    └─Conv2d: 3-29                 [10, 512, 3, 3]           2,359,808
│    │    └─BatchNorm2d: 3-30            [10, 512, 3, 3]           1,024
│    │    └─Conv2d: 3-31                 [10, 512, 3, 3]           131,584
│    └─Residual: 2-12                    [10, 512, 3, 3]           --
│    │    └─Conv2d: 3-32                 [10, 512, 3, 3]           2,359,808
│    │    └─BatchNorm2d: 3-33            [10, 512, 3, 3]           1,024
│    │    └─Conv2d: 3-34                 [10, 512, 3, 3]           2,359,808
│    │    └─BatchNorm2d: 3-35            [10, 512, 3, 3]           1,024
├─AdaptiveAvgPool2d: 1-6                 [10, 512, 1, 1]           --
├─Flatten: 1-7                           [10, 512]                 --
├─Linear: 1-8                            [10, 10]                  5,130
==========================================================================================
Total params: 11,178,378
Trainable params: 11,178,378
Non-trainable params: 0
Total mult-adds (G): 3.19
==========================================================================================
Input size (MB): 0.37
Forward/backward pass size (MB): 70.41
Params size (MB): 44.71
Estimated Total Size (MB): 115.49
…
