…
Sequential output shape:	 torch.Size([1, 384, 12, 12])
MaxPool2d output shape:	 torch.Size([1, 384, 5, 5])
Dropout output shape:	 torch.Size([1, 384, 5, 5])
Sequential output shape:	 torch.Size([1, 10, 5, 5])
AdaptiveAvgPool2d output shape:	 torch.Size([1, 10, 1, 1])
Flatten output shape:	 torch.Size([1, 10])
==========================================================================================
Layer (type:depth-idx)                   Output Shape              Param #
==========================================================================================
Sequential                               [1, 10]                   --
├─Sequential: 1-1                        [1, 96, 54, 54]           --
│    └─Conv2d: 2-1                       [1, 96, 54, 54]           11,712
│    └─ReLU: 2-2                         [1, 96, 54, 54]           --
│    └─Conv2d: 2-3                       [1, 96, 54, 54]           9,312
│    └─ReLU: 2-4                         [1, 96, 54, 54]           --
│    └─Conv2d: 2-5                       [1, 96, 54, 54]           9,312
│    └─ReLU: 2-6                         [1, 96, 54, 54]           --
├─MaxPool2d: 1-2                         [1, 96, 26, 26]           --
├─Sequential: 1-3                        [1, 256, 26, 26]          --
│    └─Conv2d: 2-7                       [1, 256, 26, 26]          614,656
│    └─ReLU: 2-8                         [1, 256, 26, 26]          --
│    └─Conv2d: 2-9                       [1, 256, 26, 26]          65,792
│    └─ReLU: 2-10                        [1, 256, 26, 26]          --
│    └─Conv2d: 2-11                      [1, 256, 26, 26]          65,792
│    └─ReLU: 2-12                        [1, 256, 26, 26]          --
├─MaxPool2d: 1-4                         [1, 256, 12, 12]          --
├─Sequential: 1-5                        [1, 384, 12, 12]          --
│    └─Conv2d: 2-13                      [1, 384, 12, 12]          885,120
│    └─ReLU: 2-14                        [1, 384, 12, 12]          --
│    └─Conv2d: 2-15                      [1, 384, 12, 12]          147,840
│    └─ReLU: 2-16                        [1, 384, 12, 12]          --
│    └─Conv2d: 2-17                      [1, 384, 12, 12]          147,840
│    └─ReLU: 2-18                        [1, 384, 12, 12]          --
├─MaxPool2d: 1-6                         [1, 384, 5, 5]            --
├─Dropout: 1-7                           [1, 384, 5, 5]            --
├─Sequential: 1-8                        [1, 10, 5, 5]             --
│    └─Conv2d: 2-19                      [1, 10, 5, 5]             34,570
│    └─ReLU: 2-20                        [1, 10, 5, 5]             --
│    └─Conv2d: 2-21                      [1, 10, 5, 5]             110
│    └─ReLU: 2-22                        [1, 10, 5, 5]             --
│    └─Conv2d: 2-23                      [1, 10, 5, 5]             110
│    └─ReLU: 2-24                        [1, 10, 5, 5]             --
├─AdaptiveAvgPool2d: 1-9                 [1, 10, 1, 1]             --
├─Flatten: 1-10                          [1, 10]                   --
==========================================================================================
Total params: 1,992,166
Trainable params: 1,992,166
Non-trainable params: 0
Total mult-adds (M): 763.82
==========================================================================================
Input size (MB): 0.20
Forward/backward pass size (MB): 12.20
Params size (MB): 7.97
Estimated Total Size (MB): 20.37
…
